cpg_model.pt (torch, 222116 bytes, 10 tensors)

embedding.weight f4 [6, 16]
0	0x00000000	0.0
1	0x00000000	0.0
2	0x00000000	0.0
3	0x00000000	0.0
4	0x00000000	0.0
5	0x00000000	0.0
6	0x00000000	0.0
7	0x00000000	0.0
8	0x00000000	0.0
9	0x00000000	0.0
10	0x00000000	0.0
11	0x00000000	0.0
12	0x00000000	0.0
13	0x00000000	0.0
14	0x00000000	0.0
15	0x00000000	0.0
16	0xbf0050e5	-0.50123435
17	0xc00d1546	-2.2044234
18	0xbf158159	-0.58400494
19	0xbf3b7e2d	-0.73239404
20	0xbf574b79	-0.8409954
21	0xbfae39da	-1.3611405
22	0x4005aadb	2.0885532
23	0xbec2ff3a	-0.38085347
24	0xbf0aa730	-0.5416136
25	0x3f874068	1.056653
26	0xbf415931	-0.7552672
27	0xbe6ad4c6	-0.22932729
28	0x3f6dc603	0.92880267
29	0x3fda68d2	1.7063239
30	0x3ed92d81	0.4241753
31	0xbe5e9106	-0.2173501
32	0xbb250a37	-0.002518309
33	0x3efb85a6	0.49125403
34	0x3e231bd5	0.15928586
35	0x3f0e208f	0.5551843
36	0xbfb0f583	-1.3824924
37	0x40011d6a	2.0174203
38	0xbe94bd66	-0.2905075
39	0x3e740880	0.23831367
40	0x3fab1eb3	1.3368744
41	0x3f2c38fb	0.67274445
42	0xbd25241f	-0.04031765
43	0xbf5b82f5	-0.857467
44	0x3f1c2c61	0.61005217
45	0x3fb4f3ce	1.4136903
46	0x3f29dfff	0.66357416
47	0xbe9ff32a	-0.31240207
48	0x3efd95d2	0.49528366
49	0x3f2e3c54	0.68060803
50	0xbf35ebe1	-0.7106305
51	0xbf5ee066	-0.87061155
52	0xbf40451d	-0.7510546
53	0x3edde16a	0.4333604
54	0x3f070a35	0.5274995
55	0x3ec0d48a	0.37662154
56	0x3fa61c62	1.2977412
57	0x3fb156d7	1.3854626
58	0x3f83f1eb	1.0308203
59	0xbe46c01c	-0.19409221
60	0x3f90d686	1.1315467
61	0x3fe23b37	1.7674321
62	0xbf533b46	-0.8251232
63	0xbf76db7a	-0.96428645
64	0x3f0608d8	0.52357244
65	0xbf863e30	-1.0487728
66	0x3f78aafd	0.9713591
67	0xbf1717ba	-0.5902058
68	0x3f8ad86f	1.08473
69	0x3e8f2941	0.27961162
70	0x40165cc2	2.3494115
71	0x3e847941	0.2587376
72	0x3f1e56ba	0.61851084
73	0xbf0cd082	-0.5500566
74	0xbff23511	-1.8922445
75	0x3eda90e9	0.42688683
76	0x3f3429b9	0.70376164
77	0xbed74c32	-0.4205032
78	0x3f855d69	1.0419132
79	0x3f01a5d6	0.5064367
80	0x3db373b9	0.08762307
81	0xbf8f318e	-1.1186998
82	0xbf90bc0a	-1.1307385
83	0x3e8e63ff	0.27810666
84	0xbe3383ee	-0.17530796
85	0x3fad1f3d	1.3525158
86	0x40073ded	2.1131546
87	0x3e29e95d	0.16592927
88	0x3fc83538	1.5641241
89	0xc0054ed3	-2.082936
90	0x3ebbf299	0.36708525
91	0x3cd853e2	0.026407186
92	0x3ed742ec	0.42043245
93	0xbeaf1fb2	-0.3420387
94	0x3eb39f94	0.35082686
95	0x3f30b7f8	0.69030714

lstm.weight_ih_l0 f4 [256, 16]
0	0x3c1a47d0	0.0094165355
1	0xba2a3419	-0.00064927485
2	0xbdedc4f2	-0.1160983
3	0x3dde61c0	0.10858488
4	0xbd83c6d4	-0.06434408
5	0xbcddcf54	-0.0270764
6	0x3c4f3206	0.012646204
7	0xbddaa5a2	-0.10676123
8	0x3dae2c54	0.08504549
9	0x3deb205b	0.11480781
10	0xbd740db8	-0.059583396
11	0xbda90100	-0.08252144
12	0x3ddd2e7d	0.107998826
13	0xbdabe21a	-0.08392735
14	0x3d53bdef	0.051694807
15	0xbdd28290	-0.10278809
16	0xbd9a8c95	-0.07546345
17	0x3c7133ab	0.014721791
18	0x3d536f8d	0.051620055
19	0x3e05b962	0.13058999
20	0x3db11cbc	0.08648059
21	0xbcac820c	-0.021058105
22	0xbdb12888	-0.08650309
23	0xbd02ba89	-0.031916175
24	0x3c2db1c1	0.010601462
25	0xbd430c10	-0.047618926
26	0xbcc8b9f4	-0.024502732
27	0xbd990f93	-0.07473674
28	0x3c343438	0.010998778
29	0x3d2ee43a	0.042698123
30	0x3bfb9ea9	0.007678826
31	0xbcd9ec6e	-0.026601996
32	0x3d76cb59	0.06025252
33	0xbdb11040	-0.086456776
34	0x3d4848ea	0.04889766
35	0x3d8b9bdb	0.068168364
36	0x3c297151	0.010341958
37	0x3e1cac1e	0.15300032
38	0x3cb75c54	0.022382893
39	0x3c6f6ab4	0.014612842
40	0xbd130083	-0.03588916
41	0x3c843b42	0.016141538
42	0x3d9fabf0	0.07796466
43	0xbd20c848	-0.039253503
44	0x3dd77160	0.105196714
45	0xbcfa7d5e	-0.030577358
46	0x3e14ae00	0.145195
47	0xbb9e5f7a	-0.004833159
48	0xbd1a985a	-0.03774295
49	0xbda9982e	-0.08280979
50	0xbca20b5f	-0.019780813
51	0xbd959abd	-0.073049046
52	0xbc97d41c	-0.018533759
53	0x3b68252a	0.0035422542
54	0x3d57af39	0.05265734
55	0x3d534206	0.051576637
56	0xbd94584a	-0.07243402
57	0x3d7d753b	0.061879378
58	0xbe1ad475	-0.15120108
59	0x3d160fad	0.036636043
60	0x3da85a6e	0.08220373
61	0x3d6900d1	0.056885544
62	0x3d895fa9	0.06707699
63	0xbcd75fdb	-0.026290825
64	0xbd9b6d8b	-0.07589253
65	0xbde95ad3	-0.113942765
66	0x3d183c9c	0.037167177
67	0x3c8f3b08	0.017484203
68	0xbe11d39f	-0.14240883
69	0x3c333464	0.010937784
70	0x3e05b7e9	0.13058437
71	0x3dd45d94	0.10369411
72	0xbd9c6a43	-0.07637455
73	0x3d60c4e5	0.054875273
74	0xbc49580d	-0.012289059
75	0x3d14be8f	0.036314543
76	0x3e17822b	0.14795749
77	0x3c3f9874	0.0116940625
78	0x3b00c42e	0.0019648182
79	0xbd5dfaa6	-0.054194115
80	0x3dc1f8a8	0.094712555
81	0x3d534029	0.05157486
82	0xbdca096c	-0.09865078
83	0x3dbfee8f	0.09371673
84	0xbd804e66	-0.06264953
85	0x3db5526a	0.0885361
86	0x3db025ba	0.08600946
87	0x3d543726	0.051810406
88	0x3df4d064	0.1195381
89	0xbcfaef32	-0.030631635
90	0x3cbf6f4e	0.023368504
91	0xbda1b0d2	-0.07895054
92	0xbd05106c	-0.032486364
93	0x3c2a150d	0.010380995
94	0x3d5dd4f9	0.054158185
95	0xbc5b87de	-0.0133990925
96	0x3c66be7d	0.014083502
97	0xbde04da4	-0.10952309
98	0x3da07563	0.0783489
99	0x3d71c1d1	0.05902273
100	0x3d93b485	0.07212166
101	0xbd1e8aaf	-0.038706478
102	0x3dff6e83	0.1247225
103	0x3d180976	0.037118398
104	0xbc621cc1	-0.013800801
105	0x3d0fbd24	0.035092488
106	0xbd2465a4	-0.040135995
107	0x3ddb46ba	0.107068494
108	0xbd82927f	-0.06375598
109	0xbdf05b53	-0.11736169
110	0x3e09b8f9	0.13449468
111	0x3cc0bbd5	0.023527065
112	0x3d2df251	0.04246742
113	0xbdb37cc9	-0.08764035
114	0x3d9f8a90	0.077901006
115	0xbe1ec256	-0.15503821
116	0x3e23eae4	0.16007572
117	0x3dcf00b0	0.10107553
118	0x3dc488ca	0.09596403
119	0x3da422aa	0.08014424
120	0x3d996708	0.07490355
121	0x3d06facf	0.032954033
122	0xbc4e0dc4	-0.012576524
123	0x3e077ef3	0.13232021
124	0x3df7ab9d	0.120932795
125	0xba633ec3	-0.0008668715
126	0x3d161478	0.036640614
127	0xbc638f04	-0.013889078
128	0xbc50c49a	-0.012742186
129	0xbd8ad2b1	-0.067784674
130	0xbdb8f9e4	-0.09032038
131	0xbd09db18	-0.03365621
132	0xbd592a3f	-0.053018805
133	0x3e080e69	0.13286747
134	0xbb981bbf	-0.0046419795
135	0x3d858bff	0.06520843
136	0x3d8e1035	0.06936685
137	0x3d8ef40b	0.06980141
138	0xbdd20955	-0.10255686
139	0xbc44f877	-0.012022129
140	0x3bf51c11	0.0074801524
141	0x3e177b4c	0.14793128
142	0x3d6249fa	0.05524633
143	0x3dba5c99	0.09099693
144	0x3e04700e	0.1293337
145	0xbe04df77	-0.1297587
146	0x3e216d88	0.15764439
147	0xba0e6641	-0.0005432107
148	0xbd092fee	-0.033492975
149	0xbdd07a29	-0.1017955
150	0xbdac1764	-0.08402899
151	0xbde1168d	-0.10990629
152	0xbdb6c165	-0.08923606
153	0x3da8ebdc	0.082481116
154	0xbdc4caf0	-0.0960902
155	0x3de7f043	0.11325123
156	0xbdaee008	-0.08538824
157	0x3e081247	0.13288222
158	0x3c8314de	0.016001161
159	0xbda7ec5f	-0.08199381
160	0x3da58386	0.08081727
161	0x3cece3c5	0.028917203
162	0x3dba4832	0.090958014
163	0xbd6162e9	-0.05502597
164	0xbdc2d52b	-0.09513315
165	0x3df01533	0.117227934
166	0xbd82babd	-0.06383274
167	0x3d4f095e	0.050546043
168	0xbc882859	-0.016620802
169	0x3dd0722f	0.10178029
170	0xbd8e441f	-0.06946587
171	0xbde3cec3	-0.11123421
172	0x3c2e36f6	0.010633221
173	0xbd24b372	-0.040210195
174	0xbde4f78e	-0.1118003
175	0xbe121935	-0.14267428
176	0x3e00749f	0.12544487
177	0x3d676389	0.05649141
178	0xbdfe3fad	-0.12414489
179	0xbda192c1	-0.07889319
180	0xbd24a517	-0.040196504
181	0xbdba8026	-0.091064736
182	0x3dfacbe8	0.12245923
183	0xbc6ffd5d	-0.014647809
184	0x3cb67a5f	0.022275148
185	0x3d537d80	0.051633358
186	0xbd896ed1	-0.0671059
187	0xbc911f85	-0.017715225
188	0x3d50f4bf	0.051014658
189	0x3cb34e1a	0.021887828
190	0x3e19c990	0.15018296
191	0xbd8e1b3f	-0.069387905
192	0x3d0f57b2	0.034995742
193	0x3a11888e	0.0005551659
194	0xbe0a7019	-0.13519324
195	0x3b97af9d	0.004629089
196	0xbdebfef9	-0.115232415
197	0x3d050fed	0.03248589
198	0x3d4d24c8	0.050083905
199	0xbda19455	-0.0788962
200	0xbc33c890	-0.010973111
201	0x3db65a8d	0.0890399
202	0x3d910d5c	0.07082626
203	0xbd8d9af3	-0.0691432
204	0x3dd96599	0.10615081
205	0x3e052e3f	0.13005923
206	0x3cfefed5	0.031127373
207	0xbd5df3a3	-0.05418743
208	0xbc158066	-0.009124851
209	0x3c6b4cdf	0.014361589
210	0xbdba3b30	-0.0909332
211	0xbc12e114	-0.008964796
212	0xbd416a20	-0.04722035
213	0x3d941491	0.07230485
214	0xbdb5cf82	-0.088774696
215	0x3d8a4a6f	0.06752478
216	0xbd9d14b7	-0.07669967
217	0xbcb516b4	-0.022105552
218	0xbe02e14a	-0.12781253
219	0xbd903aa3	-0.07042434
220	0x3c8a60bf	0.016891835
221	0xbdd0da83	-0.10197928
222	0xbd170e2c	-0.03687875
223	0x3d130be1	0.0359
224	0xbd3f9315	-0.046771128
225	0xbd9b8676	-0.07594006
226	0xbc38faae	-0.011290235
227	0xbe15a5b5	-0.14613993
228	0x3d93bd23	0.07213809
229	0xbdf62e1b	-0.12020513
230	0x3df36142	0.11883785
231	0xbe0bdc73	-0.13658313
232	0x3de490b5	0.11160413
233	0xbd2b82d4	-0.041872814
234	0xbdccc510	-0.09998524
235	0x3deb5e05	0.11492542
236	0x3d01ff36	0.03173753
237	0xbc9a9afa	-0.018872727
238	0xbd29b79a	-0.04143486
239	0x3df123f5	0.117744364
240	0xbd01e58a	-0.031713046
241	0x3b14064a	0.0022586756
242	0x3dc4081c	0.09571859
243	0xbd2289e5	-0.039682288
244	0x3d3bccbf	0.045849558
245	0x3e11d1d1	0.14240195
246	0x3e14948e	0.14509794
247	0x3bd3aa0c	0.00645948
248	0x3d9062a8	0.07050067
249	0xbdcd96e4	-0.10038546
250	0xbda22e05	-0.07918934
251	0xbe12e362	-0.14344552
252	0x3cfc5d57	0.030806227
253	0x3dddc63b	0.10828825
254	0x3e0c2334	0.13685304
255	0x3ced785b	0.028988054

lstm.weight_hh_l0 f4 [256, 64]
0	0xbde78ace	-0.11305772
1	0x3d9c62f7	0.076360635
2	0xbdca71a2	-0.09884955
3	0xbcfad159	-0.030617403
4	0xbda2e564	-0.07953909
5	0xbcdfb5dc	-0.027308397
6	0xbd963727	-0.07334738
7	0xbd562d69	-0.0522894
8	0x3dcd4552	0.100229874
9	0xbde4f838	-0.111801565
10	0xbd96c7ff	-0.07362365
11	0xbd580687	-0.0527406
12	0x39e29b57	0.00043221816
13	0xbde79c77	-0.1130914
14	0x3cc71166	0.024300288
15	0xbdfe428d	-0.12415037
16	0xbd8fdc65	-0.07024459
17	0x3d6f5596	0.05843123
18	0x3dd020ae	0.10162483
19	0xbce0304e	-0.027366783
20	0x3e048e5e	0.12944934
21	0x3cce25cf	0.025164513
22	0xbc9b62f9	-0.018968092
23	0x3dbd52d3	0.09244313
24	0x3d4d8d5c	0.05018364
25	0xbd0a9816	-0.033836447
26	0xbde5d2fa	-0.11221881
27	0xbdf86d18	-0.12130183
28	0xbbf1f40c	-0.007383829
29	0x3d86e3d2	0.06586422
30	0x3d5b317a	0.05351398
31	0xbc6ef9ab	-0.014585893
32	0x3da85687	0.08219629
33	0x3df32237	0.1187176
34	0x3afd7d98	0.0019339798
35	0xbdcf8568	-0.10132867
36	0x3d9b8d87	0.075953536
37	0xbd61376e	-0.054984502
38	0x3e10ce56	0.14141211
39	0xbdd2e72b	-0.10297998
40	0xbd9168e0	-0.071000814
41	0xbd00e961	-0.031472567
42	0x3db3ce9f	0.08779644
43	0xbdc780ea	-0.09741385
44	0x3d8d48e4	0.068986684
45	0x3db82d25	0.08992986
46	0x3ddc38bd	0.107530095
47	0x3d8f4187	0.0699492
48	0xbda41891	-0.08012498
49	0xbd3ed69a	-0.04659138
50	0x3d71ee16	0.059064947
51	0x3e00789a	0.12546006
52	0xbdefbe2b	-0.117061935
53	0x3cc410a0	0.023933709
54	0x3da37c59	0.07982702
55	0xbd5647e7	-0.052314665
56	0xbb420296	-0.0029603592
57	0xbd14044d	-0.036136914
58	0x3d365c14	0.044521406
59	0xbd9f8dee	-0.07790743
60	0x3da44334	0.080206305
61	0x3d603969	0.05474225
62	0x3db51ceb	0.08843406
63	0x3db60621	0.08887888
64	0xbe0344d5	-0.12819226
65	0x3d89490d	0.067033865
66	0x3d9ac42d	0.07556949
67	0xbc6b38b3	-0.01435678
68	0xbc2b0f5a	-0.010440672
69	0x3d9f1866	0.077683255
70	0xbb474810	-0.0030407943
71	0xbe0d61f8	-0.13806903
72	0xbccd631a	-0.02507167
73	0x3d9f3ac4	0.077748805
74	0x3c9b9f70	0.018996924
75	0x3de2448d	0.11048231
76	0x3d979054	0.07400575
77	0xbd2f8df3	-0.042859983
78	0xbd90ad83	-0.07064345
79	0xbdccf36e	-0.10007368
80	0x3d8aacde	0.06771253
81	0xbe069952	-0.13144425
82	0xbd55876f	-0.052131113
83	0x3d1e99f4	0.03872104
84	0xbc9f1d90	-0.019423276
85	0xb939cadc	-0.00017718546
86	0xbc61163a	-0.013738209
87	0x3dae4e15	0.08510987
88	0x3d821cba	0.063531354
89	0xbda417d4	-0.08012357
90	0xbd911ac5	-0.07085184
91	0x3b351e72	0.0027636555
92	0xbd353b4f	-0.044246014
93	0xbaaeb73a	-0.0013329752
94	0x3db86c59	0.09005041
95	0xbc730e6b	-0.0148349805
96	0x3e1954e4	0.1497379
97	0xbdd47593	-0.10373988
98	0x3c47870c	0.012178194
99	0xbc9f2c94	-0.019430436
100	0x3dd3bf74	0.10339251
101	0x3e11bf47	0.14233123
102	0xbd5c4557	-0.053777065
103	0x3df777d7	0.120834045
104	0xbdb25c30	-0.087089896
105	0xbd7f82d4	-0.062380627
106	0x3db37d21	0.08764101
107	0xbd42dde2	-0.047574885
108	0x3d55f15c	0.05223213
109	0xbe013217	-0.12616764
110	0x3d93ed5d	0.07223008
111	0x3bedcbba	0.007256952
112	0x3d24eb94	0.040263727
113	0x3de78ed9	0.11306543
114	0xbda9ae5a	-0.08285208
115	0x3da6c621	0.08143259
116	0x3cd3a055	0.025833288
117	0x3cc0a5a0	0.023516476
118	0x3e0e540a	0.13899246
119	0x3da8e41f	0.08246636
120	0x3d9b2924	0.07576206
121	0xbdd0cc0a	-0.10195167
122	0xbd0bb38c	-0.034106776
123	0x3db7aaeb	0.08968147
124	0xbdbbdadc	-0.091726035
125	0x3e150b4d	0.14555092
126	0x3d58eb7f	0.05295896
127	0x3d4b3429	0.04961029
128	0xbd29313f	-0.04130673
129	0x3cb8200a	0.022476215
130	0xbc3feba2	-0.011713894
131	0x3dca60e8	0.09881765
132	0xbd89a31e	-0.06720565
133	0x3cdfbb13	0.027310884
134	0x3d0177e4	0.031608477
135	0x3d7aa7d1	0.0611952
136	0xbdb3d7de	-0.08781408
137	0xbc596a61	-0.013269992
138	0x3dbc597d	0.09196756
139	0x3d3c65da	0.04599557
140	0xbde17b8b	-0.11009892
141	0xbde28e51	-0.11062301
142	0xbd1faf78	-0.0389857
143	0xbdc01177	-0.09378331
144	0x3d1c7331	0.038195793
145	0xbaf5927a	-0.001873567
146	0x3e1a36f8	0.15060031
147	0x3c87a0cc	0.016556166
148	0xbdd1f2ee	-0.10251413
149	0xbdeb6a37	-0.11494868
150	0x3a611c28	0.00085872645
151	0xbccca223	-0.024979657
152	0x3d98f18b	0.07467946
153	0x3d75efeb	0.060043257
154	0x3db84326	0.089971825
155	0xbdb79ba3	-0.08965232
156	0xbd99453c	-0.074839085
157	0x3c9cc346	0.019136082
158	0xbd4649d6	-0.04841026
159	0x3dcf522c	0.10123095
160	0xbdba1b4a	-0.09087236
161	0x3d928ea4	0.07156113
162	0xbdb9fd43	-0.09081509
163	0x3dc010c5	0.093781985
164	0x3d4632b4	0.048388198
165	0x3dcca31b	0.099920474
166	0x3cb3e902	0.021961693
167	0xbcf4ab86	-0.029866945
168	0x3cb9ec58	0.022695705
169	0x3db75911	0.08952535
170	0x3df9dd79	0.12200446
171	0x3c989206	0.018624317
172	0x3d75a59d	0.059972394
173	0x3d724963	0.05915202
174	0x3d987900	0.07444954
175	0x3da390cf	0.079866044
176	0x3be25092	0.0069065774
177	0xbc25a6ef	-0.010110601
178	0xbc8f9c91	-0.017530711
179	0x3d2b9b80	0.041896343
180	0xbe015f41	-0.12633993
181	0x3ddd3c4f	0.108025186
182	0x3dae3911	0.08506978
183	0xbd831249	-0.06399972
184	0xbdc17412	-0.09445967
185	0x3d71dd5c	0.059048995
186	0x3ce94867	0.028476907
187	0xba8134e9	-0.0009857687
188	0x3e01f52c	0.12691182
189	0xbd9edbe9	-0.07756788
190	0xbe14e538	-0.14540565
191	0xbc96c7c3	-0.0184058
192	0x3dc90570	0.0981549
193	0xbd559b78	-0.05215022
194	0x3b90afe2	0.004415498
195	0x3dc61632	0.09672202
196	0x3d1862e0	0.03720367
197	0x3d72c685	0.059271354
198	0x3dbfd51d	0.0936682
199	0xbcfca81d	-0.030841881
200	0xbd44d8fd	-0.0480585
201	0x3daa70ff	0.083223335
202	0x3e0c525d	0.13703294
203	0xbd27c5fe	-0.040960304
204	0xbe07f6c1	-0.13277723
205	0xbce93dd5	-0.028471867
206	0xbdcdff70	-0.100584865
207	0x3d883c3a	0.06652112
208	0xbd807063	-0.06271436
209	0x3dcd06d7	0.1001107
210	0x3df754a8	0.12076694
211	0x3cdd3034	0.027000524
212	0x3dac9586	0.08426957
213	0xbcc62ec5	-0.024192223
214	0x3dac29e4	0.084064275
215	0x3d3dbd17	0.04632291
216	0x3d3b0958	0.045663208
217	0x3e0f8974	0.14017278
218	0x3c8a4ec3	0.01688326
219	0xbd9ca32e	-0.076483116
220	0xbc22cc7b	-0.009936447
221	0xbde81290	-0.113316655
222	0x3dafdcbe	0.08587025
223	0x3df2aae5	0.11849002
224	0xbdb09e59	-0.086239524
225	0x3dca0ba8	0.098655045
226	0x3e00418a	0.12525001
227	0xbddf4bfd	-0.109031655
228	0x3d3308bf	0.043709513
229	0xbc22f0f9	-0.009945148
230	0xbd45245e	-0.048130386
231	0xbd8ba5da	-0.06818743
232	0x3ce6d9a8	0.028179958
233	0xbd07a37a	-0.033114888
234	0xbd595096	-0.05305537
235	0x3e035843	0.12826638
236	0x3dcc28ff	0.09968757
237	0xbdd712d4	-0.10501638
238	0x3dec7cda	0.11547251
239	0xbe07648f	-0.13221954
240	0xbd78a3bb	-0.06070302
241	0xbdc23c4b	-0.09484156
242	0x3e0aa4e3	0.13539462
243	0x3d050ece	0.032484822
244	0x3d4c0df1	0.049817983
245	0xbd90b233	-0.07065239
246	0x3dbfa795	0.093581356
247	0xbcf0daf0	-0.029401273
248	0x3cec689f	0.028858481
249	0xbdce49ad	-0.10072646
250	0xbd98b558	-0.074564636
251	0xbda5bb57	-0.08092373
252	0xbc14c12f	-0.009079262
253	0x3c71c810	0.014757171
254	0xbd9d783a	-0.07688947
255	0x3dec7b16	0.11546914

lstm.bias_ih_l0 f4 [256]
0	0x3d8a72c1	0.06760169
1	0xbd9d8a1c	-0.07692358
2	0xbd0e770e	-0.03478151
3	0xbd963155	-0.07333628
4	0x3d1a439c	0.037662134
5	0x3daf8fad	0.08572326
6	0xbda9ea62	-0.08296658
7	0x3c5acb80	0.013354182
8	0x3dee565c	0.116375655
9	0x3dc423af	0.095771186
10	0xbdb05e5c	-0.086117476
11	0xbdbbceee	-0.09170328
12	0x3d673778	0.056449383
13	0x3e090e6a	0.13384405
14	0x3d8125a4	0.063060075
15	0xbc0f6274	-0.0087515
16	0xbd80a1c1	-0.06280852
17	0x3cf44036	0.029815774
18	0x3da702c2	0.08154823
19	0x3d4cc06d	0.0499882
20	0xbd0941d8	-0.03351006
21	0x3d14504f	0.0362094
22	0x3d4a9978	0.049462765
23	0xbcfa6b7b	-0.030568829
24	0xbd74337f	-0.059619423
25	0xbda551c2	-0.08072235
26	0xbdb5ba5e	-0.08873437
27	0x3dbae0c0	0.09124899
28	0x3d182b6a	0.037150778
29	0xbd5915fa	-0.052999474
30	0x3d16c388	0.036807567
31	0xbcc4e97e	-0.024037119
32	0xbd4fafb6	-0.05070468
33	0x3d7e9343	0.06215216
34	0x3d5ae096	0.053436838
35	0x3c890e40	0.016730428
36	0xbdc67e37	-0.09692042
37	0x3d483b2c	0.048884556
38	0x3d248b79	0.040172074
39	0x3e023363	0.12714915
40	0x3dbd7c5b	0.092522345
41	0x3a786dbc	0.0009476801
42	0x3ca289aa	0.019841034
43	0x3cbd2b9e	0.023092087
44	0x3e0419ac	0.12900418
45	0xbc95fcde	-0.018309053
46	0xbbffc778	-0.007805761
47	0x3cdad275	0.026711682
48	0xbc2c3cfd	-0.010512588
49	0xbdc4f4e3	-0.09617021
50	0xbca466de	-0.020068582
51	0xbd487914	-0.048943594
52	0x3a47d11f	0.0007622409
53	0x3e1c2a7d	0.15250583
54	0x3dbc6c0a	0.09200294
55	0xbda1a475	-0.07892696
56	0x3d438de9	0.047742758
57	0xbd098e2d	-0.033582855
58	0xbca64059	-0.020294355
59	0xbd12f2f4	-0.03587623
60	0x3e057f55	0.13036855
61	0x3dd5ad78	0.10433477
62	0x3e078548	0.13234437
63	0xbda81190	-0.08206475
64	0x3c856ff8	0.016288742
65	0x3d8a02d7	0.06738823
66	0x3d67d1c8	0.056596547
67	0x3d313c46	0.04327037
68	0x3ddab4a9	0.106789894
69	0xbd8b283c	-0.067947835
70	0xbd271245	-0.040788908
71	0xbcaef738	-0.021358117
72	0x3dea47aa	0.1143945
73	0xbcb44bd4	-0.022008814
74	0x3d881dec	0.06646332
75	0xbd9657ab	-0.0734094
76	0x3e14cf72	0.14532259
77	0x3dd54d5b	0.10415145
78	0x3d1fc9bd	0.039010752
79	0x3da508d4	0.080583245
80	0xbd913f79	-0.070921846
81	0x3de58768	0.11207467
82	0x3e117f1b	0.14208643
83	0xbdf37827	-0.118881516
84	0x3d34c070	0.044128835
85	0xba2a7d15	-0.0006503624
86	0x3da658a7	0.08122378
87	0xbd3dca24	-0.046335354
88	0xbd4178c3	-0.047234308
89	0x3e0985a1	0.13429882
90	0x3d3c9709	0.046042476
91	0xbdad585c	-0.08464119
92	0xbc74dabb	-0.0149447275
93	0x3d611704	0.05495359
94	0x3dc0b2e9	0.094091244
95	0x3e0776c9	0.13228907
96	0x3dadf6d7	0.084943466
97	0xbdc0214f	-0.09381353
98	0x3e132c22	0.14372304
99	0x3df36341	0.118841656
100	0x3dac46f6	0.08411972
101	0x3d3701ab	0.044679325
102	0x3d00de7a	0.03146217
103	0xbd06880b	-0.032844584
104	0x3e010ce7	0.12602578
105	0x3cd89f52	0.026443157
106	0xbd571916	-0.05251416
107	0x3da67a33	0.081287764
108	0xbdaff8ea	-0.085923985
109	0xbd516a4e	-0.05112677
110	0xbd880dce	-0.06643258
111	0xbdb187cb	-0.086684786
112	0x3d92a8bc	0.0716109
113	0x3da3e15e	0.0800197
114	0xbd859fc2	-0.06524612
115	0x3d8492d2	0.06473316
116	0xbd4b7aba	-0.049677588
117	0x3d8e56c4	0.06950143
118	0xbba4b03d	-0.005025892
119	0x3d385012	0.044998236
120	0x3d577f71	0.052611772
121	0xbb9a1d24	-0.004703181
122	0xbcdf814d	-0.027283335
123	0x3d83cde8	0.06435758
124	0x3d8f62f9	0.070012994
125	0x3cd92188	0.026505247
126	0xbd48e51c	-0.04904662
127	0xbcc99184	-0.02460552
128	0x3cb2ded5	0.02183477
129	0xbdb7bc46	-0.08971457
130	0xbd8f8c4a	-0.0700918
131	0x3dc7010e	0.09716998
132	0x3caad980	0.020855665
133	0x3e194f61	0.14971687
134	0xbc5810c9	-0.013187596
135	0xbd956a11	-0.07295621
136	0xbdf8c05f	-0.12146067
137	0x3cb794ff	0.022409914
138	0xbd236bfb	-0.0398979
139	0x3e0bf25e	0.13666674
140	0xbd2a4ecd	-0.041579057
141	0x3d264f30	0.040602863
142	0xbd22c486	-0.0397382
143	0x3da06c74	0.07833186
144	0x3e00f962	0.12595132
145	0xbe0589bf	-0.13040827
146	0xbd31afa2	-0.043380387
147	0xbdea0321	-0.11426378
148	0xbd8695b9	-0.06571526
149	0xbd9c3c55	-0.07628695
150	0x3d7cacca	0.061688222
151	0xbd04dc11	-0.032436434
152	0x3db1feeb	0.086912
153	0x3dc499dc	0.09599659
154	0xbdc866e4	-0.0978525
155	0xbd605140	-0.054764986
156	0xbd04f2cf	-0.032458123
157	0x3dd03336	0.10166018
158	0x3dc8b830	0.09800756
159	0x3da9b138	0.08285755
160	0xbd471445	-0.048603315
161	0x3c298ce3	0.010348531
162	0x3def4c37	0.11684459
163	0xbdd4a1ca	-0.10382421
164	0xbd094353	-0.03351147
165	0x3d905493	0.07047381
166	0xbd6573b8	-0.05601856
167	0x3dd2a6f1	0.10285748
168	0x3d48ddf3	0.049039792
169	0x3e18a8e2	0.14908174
170	0x3d2e59c7	0.042566087
171	0x3d6281a3	0.055299412
172	0xbe154bdc	-0.1457972
173	0xbd59678d	-0.05307727
174	0x3da1bc72	0.07897271
175	0xbb26e737	-0.0025467405
176	0xbe10b114	-0.1413005
177	0xbccf33ae	-0.025293197
178	0xbd7ce14e	-0.061738305
179	0x3d303dd1	0.043027703
180	0xbdf7f41e	-0.121071085
181	0x3d255a6a	0.04036943
182	0xbd6911e4	-0.056901827
183	0xbda0ee13	-0.07857909
184	0xbd6eb39a	-0.05827675
185	0x3d7dba6a	0.061945356
186	0xbd96ba7f	-0.0735979
187	0xbb9efbc7	-0.0048517915
188	0xbd4cba09	-0.049982104
189	0x3e09d0e2	0.13458589
190	0x3cd01493	0.025400436
191	0xbdf03f30	-0.11730802
192	0x3dec506e	0.11538778
193	0x3daacda5	0.08340005
194	0x3dc13ea6	0.09435777
195	0xbdab9a71	-0.08379067
196	0x3dde9864	0.1086891
197	0xbd81cd37	-0.0633797
198	0x3c2073ee	0.009793265
199	0x3db518d1	0.08842624
200	0x3dc9a996	0.09846799
201	0xbd9560f7	-0.07293885
202	0x3c78388a	0.015150199
203	0xbda28164	-0.079348356
204	0x3dcb5883	0.09928992
205	0x3c540776	0.012941232
206	0xbcc5b07e	-0.02413201
207	0x3d4832c0	0.048876524
208	0xbcb32ef6	-0.021872979
209	0xbd906a62	-0.07051541
210	0x3dd5bcf0	0.104364276
211	0xbd9a8c3a	-0.07546277
212	0xbdb0f0b7	-0.08639663
213	0xbdbb483a	-0.091446355
214	0x3df69e23	0.12041881
215	0xbb13d63b	-0.0022558111
216	0x3cc5f9fd	0.024167055
217	0x3de7c96d	0.11317716
218	0x3db163c2	0.086616054
219	0x3d9477c3	0.07249405
220	0x3e00280d	0.12515278
221	0xba839d51	-0.0010041391
222	0x3d8c48a0	0.068497896
223	0x3d2bcaf5	0.0419416
224	0x3de1fb39	0.11034245
225	0x3cd24922	0.025669638
226	0x3e0211c1	0.12702085
227	0x3dce0d01	0.10061074
228	0x3db73b96	0.08946912
229	0x3dcb2b5f	0.09920382
230	0x3ddc89b5	0.10768453
231	0xbdadab37	-0.08479922
232	0x3e1cb120	0.15301943
233	0x3d9dddf4	0.0770835
234	0x3ca2b98e	0.01986387
235	0x3db46d26	0.08809881
236	0xbaba97d2	-0.001423592
237	0x3daabcae	0.08336769
238	0xbdcfba95	-0.101430096
239	0x3deb1807	0.11479192
240	0x3e1c4974	0.15262395
241	0x3d10f7e9	0.035392676
242	0xbda2c433	-0.07947578
243	0x3deeffde	0.116698965
244	0x3e183dff	0.148674
245	0x3da412f4	0.080114275
246	0x3d6a9bbe	0.057277434
247	0xbd08cad1	-0.033396546
248	0xbd6cfb74	-0.057856992
249	0xbd4a14bf	-0.04933619
250	0x3e0b6571	0.13612916
251	0x3cb63c5c	0.022245578
252	0x3ce71601	0.028208734
253	0x3c8467e6	0.016162824
254	0xbdc24542	-0.09485866
255	0x3ddac72e	0.10682522

lstm.bias_hh_l0 f4 [256]
0	0xbd2cdb52	-0.042201348
1	0x3dd9a318	0.10626811
2	0x3e0a9b21	0.1353574
3	0x3d8961ca	0.06708105
4	0x3c41dcba	0.0118324105
5	0x3dccefde	0.100066885
6	0x3dd99b52	0.10625328
7	0x3c8cfe69	0.017211156
8	0x3c064e2e	0.00819735
9	0xbcccadef	-0.024985282
10	0xbd4f69c5	-0.05063798
11	0x3e0f7ba1	0.14012004
12	0x3dc5094f	0.09620916
13	0x3d94e783	0.0727072
14	0x3d88a3b0	0.06671846
15	0x3e17ff92	0.14843586
16	0x3daeebf3	0.085410975
17	0x3ddd6fb5	0.10812322
18	0x3e10a426	0.14125118
19	0x3dc1f0b0	0.094697356
20	0x3da88eed	0.08230386
21	0x3c20ff72	0.009826528
22	0x3c853736	0.016261678
23	0x3d435975	0.047692735
24	0x3d959c9f	0.07305264
25	0x3d817f63	0.06323125
26	0xbb5707cc	-0.0032811044
27	0xbd4d33f5	-0.05009838
28	0xbd44e988	-0.048074275
29	0xbdaa24e0	-0.083078146
30	0xbda5d76a	-0.080977276
31	0xbd0338f9	-0.032036755
32	0x3dfea1f8	0.12433237
33	0x3c84255c	0.016131096
34	0x3d0c3d63	0.03423823
35	0x3c4f58a1	0.012655408
36	0xbd2dbafe	-0.042414658
37	0x3c6ad896	0.014333865
38	0xbd075de0	-0.03304851
39	0xbdbe4085	-0.0928965
40	0xbcd85480	-0.02640748
41	0x3e0ff76e	0.1405923
42	0x3dcbfe1f	0.09960579
43	0xbda39b8e	-0.07988654
44	0x3d930063	0.07177808
45	0x3de88c59	0.11354894
46	0x3d9f0faa	0.077666596
47	0xbc3bdf47	-0.011466808
48	0xbcb49085	-0.022041569
49	0xbda008a4	-0.07814148
50	0x3dcaa347	0.09894424
51	0x3df3dea8	0.11907703
52	0x3d932a04	0.07185748
53	0x3ca268e7	0.019825412
54	0x3db3c4e8	0.08777791
55	0x3ded6cac	0.11592993
56	0xbcf5c3e6	-0.030000638
57	0xbd822a59	-0.063557334
58	0x3dbcba1b	0.09215184
59	0x3d8958ee	0.06706415
60	0xbdd6aa25	-0.10481671
61	0xbdb82416	-0.08991258
62	0x3df7ab06	0.12093167
63	0x3ce4ea5e	0.027943786
64	0x3df0364e	0.11729108
65	0x3e11de2c	0.14244908
66	0xbd4db2f6	-0.0502195
67	0x3e0a9c09	0.13536085
68	0xbd924bfb	-0.071433984
69	0xbaee1cc0	-0.0018166527
70	0xbd9ae233	-0.07562675
71	0xbde28781	-0.110610016
72	0xbd93b1ae	-0.07211624
73	0x3d556d8f	0.052106436
74	0x3c78318b	0.015148531
75	0x3d7d7706	0.061881088
76	0x3c6de42a	0.014519731
77	0x3ddfd8ea	0.10930045
78	0x3d89eb6b	0.067343555
79	0x3dce2648	0.10065895
80	0x3da4f34b	0.08054217
81	0xbded59ed	-0.115894176
82	0x3d97872e	0.0739883
83	0xbd5db871	-0.054130975
84	0xba2062b0	-0.0006118221
85	0x3dc6c3d7	0.09705322
86	0xbc000d1c	-0.0078156255
87	0x3d91ff2e	0.0712875
88	0x3dd9a7a4	0.10627678
89	0xbcb2c3db	-0.021821907
90	0xbc9cd1dd	-0.01914304
91	0xbb1543ef	-0.0022776087
92	0x3e191677	0.14949976
93	0xbcc1500a	-0.023597736
94	0x3e17112f	0.14752649
95	0x3c947ecc	0.018126868
96	0x3e0aae13	0.13542967
97	0xbdb94173	-0.090456866
98	0x3dad1146	0.0845056
99	0x3df6373e	0.12022255
100	0xbc1523cc	-0.009102773
101	0x3def8cf9	0.1169681
102	0xbdb06112	-0.08612265
103	0x3aea1ab0	0.0017860737
104	0x3c00ff9e	0.007873444
105	0x3d26c15e	0.040711753
106	0xbc88cf5c	-0.01670044
107	0x3d5d7d70	0.054074705
108	0xbda82f80	-0.08212185
109	0x3d4cc51c	0.049992666
110	0xbdd7523d	-0.105137326
111	0xbde00b2f	-0.10939633
112	0x3e18066c	0.148462
113	0x3c51394f	0.012770011
114	0x3d751618	0.059835523
115	0xbda6a869	-0.081375904
116	0xbc9048c4	-0.017612822
117	0x3cb54a99	0.022130297
118	0xbd8b756a	-0.06809504
119	0xbd90bc79	-0.07067198
120	0xbd689809	-0.056785617
121	0x3d3e40a6	0.046448372
122	0xbda18759	-0.07887144
123	0x3d173b2f	0.036921676
124	0xbc3a37b3	-0.011365819
125	0xbd7aee46	-0.06126239
126	0x3db7bc05	0.08971409
127	0xbd658d9f	-0.056043264
128	0xbd8af7e5	-0.067855634
129	0xbe05446b	-0.1301438
130	0x3d5ce501	0.053929333
131	0xbd098bdf	-0.033580657
132	0x3dd1a006	0.102356
133	0x3dd4c264	0.103886396
134	0x3d84f3b1	0.06491793
135	0xbde30195	-0.11084286
136	0xbdc955db	-0.09830829
137	0x3c740f5c	0.01489624
138	0x3d9650ac	0.07339606
139	0x3d3e2d2c	0.046429798
140	0xbd35f1d0	-0.044420063
141	0xbde33749	-0.11094529
142	0xbc82d34f	-0.0159699
143	0xbddf780a	-0.109115675
144	0x3d885ba0	0.06658101
145	0xbdf25a7a	-0.11833663
146	0x3d724418	0.05914697
147	0x3dcc2a01	0.09968949
148	0xbd6da9c6	-0.058023237
149	0x3d42acdf	0.047528144
150	0x3da6d138	0.08145374
151	0xbde29f87	-0.11065584
152	0xbcb1443a	-0.021638978
153	0x3e03671c	0.12832302
154	0x3dcb9124	0.09939793
155	0xbdc19f10	-0.09454167
156	0xbdfc5f8a	-0.1232291
157	0xbdbac57a	-0.09119697
158	0x3dab1589	0.08353717
159	0xbbc62268	-0.006046582
160	0x3df47c72	0.119377986
161	0x3d4ff230	0.050768077
162	0xbd6c586a	-0.057701506
163	0x3c576e3a	0.013148839
164	0x3dfd8f49	0.12380845
165	0x3d873a4f	0.06602918
166	0xbd7dc2f4	-0.0619535
167	0xbd8e8e65	-0.06960753
168	0x3de12e3e	0.10995148
169	0xbd4d2696	-0.050085627
170	0x3df59edf	0.11993193
171	0x3b46e559	0.0030349104
172	0x3d33412f	0.043763336
173	0x3db32fbf	0.08749341
174	0xbde9c810	-0.11415112
175	0x3c26f0b4	0.010189224
176	0xbdbe70be	-0.092988476
177	0xba9de52d	-0.0012046449
178	0x3de9eb11	0.114217885
179	0x3d66d10f	0.056351718
180	0x3b382ef7	0.0028104165
181	0x3d67a788	0.056556255
182	0x3d2040f2	0.039124437
183	0xbd2eb97d	-0.042657364
184	0x3e0d3eeb	0.13793533
185	0xbd681500	-0.056660652
186	0xbdabb13b	-0.083834134
187	0xbd0f3f3a	-0.034972407
188	0x3d809f0c	0.06280336
189	0x3dbb4004	0.091430694
190	0xbd452fc5	-0.04814126
191	0xbddae51e	-0.10688232
192	0xbcb0e0dc	-0.021591596
193	0x3dc0f12a	0.094209984
194	0x3dc18d24	0.094507486
195	0x3bfdf4cb	0.007750129
196	0xbd67b133	-0.056565475
197	0x3d52bb55	0.051448185
198	0x3cedc92d	0.029026592
199	0x3cf15c8d	0.029463077
200	0x3d3a129d	0.045427907
201	0x3dc83f4c	0.09777698
202	0xbdc4a5c7	-0.09601932
203	0xbb6a93a2	-0.0035793562
204	0xbd83487f	-0.06410312
205	0x3d64c613	0.05585296
206	0xbda6bf8d	-0.08142004
207	0xbbb08da1	-0.005387977
208	0xbd7ee388	-0.06222871
209	0x3c44a3bb	0.012001927
210	0x3dd53ff6	0.1041259
211	0x3c0f3524	0.008740697
212	0x3d7cf757	0.06175932
213	0x3dca67f4	0.09883109
214	0x3dedd6b4	0.11613217
215	0x3ccc3710	0.0249286
216	0x3cd06330	0.025437921
217	0x3d346c9f	0.0440489
218	0x3cfb6d96	0.030691903
219	0x3dd3875e	0.103285536
220	0x3db2a91c	0.08723661
221	0x3da68e33	0.08132591
222	0xbdb63915	-0.08897606
223	0xbc9b123b	-0.018929591
224	0x3d0f9c4d	0.03506117
225	0xbe0371a2	-0.12836316
226	0xbd99ef63	-0.075163625
227	0xbc8822ab	-0.016618093
228	0x3dc9e09e	0.098572955
229	0x3ca31979	0.019909607
230	0xbd729b73	-0.05923028
231	0xbd0155e4	-0.031576052
232	0x3d98dfef	0.07464587
233	0x3cdff622	0.027339045
234	0xbd379d66	-0.04482784
235	0x3dfbcb10	0.122945905
236	0xbd64890c	-0.05579476
237	0x3d16c13f	0.036805388
238	0xbd9334f2	-0.07187833
239	0xbc9b21f1	-0.018937083
240	0x3d4fa997	0.050698843
241	0x3daf6a32	0.08565177
242	0xbda49639	-0.08036465
243	0xbd0fcc34	-0.035106853
244	0x3dff020d	0.12451563
245	0x3dbb488a	0.09144695
246	0xbce2c911	-0.027683767
247	0x3d11d606	0.0356045
248	0xbd55f218	-0.05223283
249	0x3d6af072	0.057358213
250	0x3e13a516	0.14418444
251	0x3e0870fb	0.13324349
252	0xbd96c036	-0.0736088
253	0x3dc3ff48	0.095701754
254	0xbdb1e72b	-0.0868667
255	0xbd88ae21	-0.066738375

lstm.weight_ih_l1 f4 [256, 64]
0	0xbd9153fe	-0.07096098
1	0x3d80dbbd	0.06291912
2	0xbd848458	-0.06470555
3	0x3c0b97d5	0.008520086
4	0x3e10d9eb	0.14145629
5	0xbd44602f	-0.04794329
6	0xbe1626f2	-0.14663294
7	0xbcb9baf0	-0.022672147
8	0xbcde0ac2	-0.02710474
9	0x3d90b306	0.07065396
10	0xbd8b8f2f	-0.068144195
11	0xbc0345ba	-0.00801223
12	0xbdf502ac	-0.119634
13	0xbcceee80	-0.02526021
14	0xbdc1eb24	-0.09468678
15	0xbddcb27c	-0.10776231
16	0x3d71aa41	0.059000257
17	0x3dd58e0a	0.104274824
18	0xbb72b158	-0.0037031975
19	0x3d6741be	0.05645918
20	0x3d21cd55	0.03950246
21	0x3caffed0	0.021483809
22	0x3d9378bf	0.07200765
23	0xbc624122	-0.013809474
24	0x3e01edd7	0.12688385
25	0xbd6d8dab	-0.057996433
26	0x3cbfe455	0.023424307
27	0x3c5f1a1e	0.013617067
28	0xbd9fa288	-0.07794672
29	0x3d5a62b1	0.053316776
30	0x3d9ca957	0.076494865
31	0x3dfff4b1	0.12497843
32	0x3af47350	0.0018650088
33	0xbc109ab4	-0.008825947
34	0xbd8d4f30	-0.068998694
35	0xbdbe0ab1	-0.09279383
36	0x3e035e9c	0.1282906
37	0xbd91e4c3	-0.07123711
38	0x3d53f99b	0.051751714
39	0x3d12febc	0.035887465
40	0x3e0d4b55	0.13798268
41	0xbcded971	-0.027203294
42	0x3beb4940	0.007180363
43	0x3d820981	0.06349469
44	0xbc6a9381	-0.014317394
45	0xbd5c22d4	-0.053744152
46	0xbd33c846	-0.043892168
47	0x3da630f5	0.081148066
48	0xbe1503a3	-0.14552169
49	0x3da0bc1c	0.07848379
50	0x3e103c7a	0.1408557
51	0x3dcd1060	0.10012889
52	0xbe066ce0	-0.1312747
53	0x3d97c3f3	0.07410421
54	0x3de00491	0.10938371
55	0x3dbee5e3	0.09321191
56	0x3dea9803	0.11454775
57	0x3ca4c4b3	0.020113325
58	0xbd6696c2	-0.056296118
59	0x3d627c2b	0.055294197
60	0x3d706251	0.05868751
61	0x3da331db	0.079684936
62	0x3bc677ce	0.0060567623
63	0xbc95af2f	-0.01827201
64	0xbd982eed	-0.074308254
65	0x3ddd3e49	0.108028956
66	0xbda28989	-0.07936389
67	0x3cb51844	0.022106297
68	0x3d7f1bbb	0.062282305
69	0x3dbdc7c3	0.09266617
70	0xbd2b1fd1	-0.04177839
71	0xbcb7ee53	-0.022452509
72	0x3dd9ee80	0.106411934
73	0xbd294bab	-0.04133193
74	0xbc7874ff	-0.015164613
75	0xbe04d4b4	-0.12971765
76	0x3d3b13a2	0.04567302
77	0xbd4242ca	-0.047426976
78	0x3dbebd1b	0.09313413
79	0x3acc4008	0.0015583048
80	0x3d6e1b1b	0.05813132
81	0x3cf8d339	0.030374156
82	0x3d64b6d2	0.055838414
83	0xbdcc3885	-0.09971718
84	0x3de941c1	0.11389495
85	0x3df143b9	0.11780495
86	0xbe1d84e8	-0.15382731
87	0x3d4cfff1	0.050048772
88	0x3d00c242	0.03143526
89	0x3da4d4fd	0.08048437
90	0x3da5b8a0	0.08091855
91	0x3d5aae2a	0.053388752
92	0x3cbfa739	0.023395168
93	0x3d18758d	0.03722148
94	0x3d1a801b	0.037719827
95	0xbbd65284	-0.0065405983
96	0x3bbe752f	0.005812309
97	0x3d7ed8c4	0.062218443
98	0xbdc33aad	-0.09532676
99	0x3e125d9a	0.14293519
100	0xbceda393	-0.029008662
101	0xbd8a187a	-0.0674295
102	0xbd58736b	-0.052844446
103	0xbdc64825	-0.09681729
104	0xbda6add2	-0.08138622
105	0x3da7eb6c	0.081992
106	0xbdd968b5	-0.106156744
107	0xbe100368	-0.140638
108	0x3dd211d9	0.102573104
109	0x3d3ebfd0	0.046569645
110	0xbcf420c0	-0.029800773
111	0xbdc80775	-0.09767047
112	0x3df371b2	0.1188692
113	0x3da2bf03	0.07946589
114	0xbe173995	-0.1476806
115	0x3bbaf43f	0.005705386
116	0xbdb498bc	-0.08818194
117	0xbc4432c7	-0.011974997
118	0x3d51dcba	0.051235892
119	0x3dc0e3fa	0.09418483
120	0x3d261d75	0.040555436
121	0x3e146c5c	0.14494461
122	0xbe026ef3	-0.12737636
123	0x3e08ddf5	0.1336592
124	0xbddda63a	-0.10822721
125	0xbd2bed8f	-0.0419746
126	0x3cf488de	0.02985042
127	0x3b87b2eb	0.0041412017
128	0xbda62ac6	-0.08113627
129	0xbe148565	-0.14504011
130	0x3ba1e623	0.0049407645
131	0xbd80fe21	-0.06298471
132	0x3da4ff62	0.08056523
133	0xbd90c764	-0.07069281
134	0x3d957a9b	0.07298776
135	0xbdb3e9c9	-0.08784825
136	0x3d343c83	0.04400302
137	0x3df70b35	0.120626844
138	0xbd0b01c6	-0.03393724
139	0x3d31aaef	0.043375906
140	0xbdb296d8	-0.087201774
141	0x3d9d51c8	0.07681614
142	0xbd43ff05	-0.047850627
143	0xbd1fbbde	-0.038997523
144	0x3deb86ee	0.11500345
145	0xbdea81b6	-0.11450522
146	0x3d9d3020	0.07675195
147	0xbce890b7	-0.028389318
148	0x3d92d5dd	0.071696974
149	0x3d7a8ffd	0.061172474
150	0x3da87a5b	0.082264625
151	0xbd4836e5	-0.048880477
152	0x3e051caa	0.12999216
153	0xbcd136d3	-0.025538838
154	0x3e02e8eb	0.12784164
155	0x3d7e3bca	0.062068738
156	0x3cdae842	0.026722077
157	0x3d3d4617	0.04620942
158	0xbbbb85fb	-0.005722759
159	0x3e05a5ac	0.1305148
160	0xbd895976	-0.067065164
161	0xbd57499d	-0.052560437
162	0xbd95f09f	-0.073212855
163	0x3d757d77	0.059934106
164	0xbd6000c8	-0.054688245
165	0x3d8d9c48	0.06914574
166	0x3e010c81	0.12602426
167	0xbc52053b	-0.01281863
168	0x3db9511a	0.09048672
169	0x3db9d6fe	0.0907421
170	0xbd761613	-0.060079645
171	0xbd5a797f	-0.053338524
172	0xbc31b255	-0.01084574
173	0xbde4e7e6	-0.111770436
174	0xbbd45021	-0.0064792787
175	0xbd602b4a	-0.054728784
176	0x3d920d4a	0.07131441
177	0x3dcf0669	0.101086445
178	0xbd9ddb13	-0.07707801
179	0xbdaf54b1	-0.085610755
180	0x3d837759	0.06419248
181	0x3ab68b14	0.0013926947
182	0x3e020d8e	0.12700483
183	0xbdc23bcb	-0.09484061
184	0xbcc25366	-0.023721408
185	0xbdd2aff9	-0.1028747
186	0x3c81ab6f	0.015828816
187	0xbdb2a584	-0.08722976
188	0x3d9a65c2	0.0753894
189	0xbad93137	-0.0016570453
190	0x3cea6f18	0.028617427
191	0xbc826f11	-0.015922101
192	0xbe0fb9d5	-0.14035733
193	0x3d63fd2e	0.055661373
194	0xbde93f0e	-0.1138898
195	0xbd9e095d	-0.0771663
196	0x3cd97cbb	0.026548734
197	0xbd2f2046	-0.042755388
198	0x3d1fd462	0.039020903
199	0x3d2357a1	0.03987849
200	0xbb5d4e90	-0.003376875
201	0x3dc3aea3	0.09554794
202	0x3da5ade5	0.080898084
203	0xbbf694c3	-0.007525058
204	0xbdc8aeaf	-0.09798943
205	0xbde1a58b	-0.11017903
206	0x3dbc3cfa	0.09191318
207	0x3dc1ae1e	0.09457038
208	0xbd23ea41	-0.040018324
209	0xbd4533ea	-0.048145212
210	0x3cd3b172	0.025841448
211	0xbc80ef8f	-0.01573923
212	0xbce482b7	-0.027894361
213	0x3d4a5d46	0.04940536
214	0xbd3910bc	-0.045181975
215	0xbdb425fe	-0.08796309
216	0xbced3c5f	-0.028959451
217	0xbdc8b823	-0.09800746
218	0x3da69474	0.08133784
219	0xbd7a929a	-0.061174966
220	0x3da3c020	0.07995629
221	0xbd9b8033	-0.075928114
222	0xbda8b4a3	-0.08237579
223	0x3e16d391	0.14729144
224	0x3d3d3f74	0.04620309
225	0x3d69be6b	0.057066362
226	0x3d95a951	0.07307685
227	0x3c46a8ca	0.012125203
228	0x3dbb265f	0.09138178
229	0xb98f083f	-0.0002728123
230	0x3d8dc1d4	0.069217354
231	0x3d43b298	0.047777742
232	0xbd989f1f	-0.07452225
233	0x3df79f14	0.120908886
234	0x3da72b25	0.08162526
235	0x3d49bb30	0.04925078
236	0x3d5da504	0.05411245
237	0xbd242f12	-0.040083952
238	0xbc859c7a	-0.016309965
239	0xba4075d7	-0.0007341778
240	0xbcd96429	-0.026537018
241	0xbd810d8b	-0.06301411
242	0x3c512c87	0.012766964
243	0xbca85d02	-0.020552162
244	0x3bdde57d	0.006771742
245	0x3db7bf33	0.08972015
246	0xbbce1bff	-0.0062899585
247	0xbcb07af9	-0.021543013
248	0x3e144942	0.1448107
249	0xbe078d3f	-0.13237475
250	0xbc6e874f	-0.014558627
251	0x3d652607	0.05594447
252	0x3e0d8a87	0.13822375
253	0xbd08204e	-0.033233933
254	0x3da035fd	0.078227974
255	0xbe12b9d3	-0.14328699

lstm.weight_hh_l1 f4 [256, 64]
0	0x3c1f1ba9	0.009711185
1	0xbd9dcb5f	-0.077048056
2	0x3b559d4f	0.0032594984
3	0x3d9b80c9	0.07592923
4	0xbda69901	-0.08134652
5	0x3db641c5	0.08899263
6	0xbdea3382	-0.114356056
7	0xbd28fafd	-0.041254986
8	0xbd6280d2	-0.055298634
9	0x3d61fff8	0.05517575
10	0xbd425ef2	-0.04745383
11	0x3dbd1578	0.092326105
12	0x3d2dc367	0.04242268
13	0x3d9ea049	0.07745416
14	0x3da1158b	0.07865437
15	0x3c81794b	0.015804907
16	0x3d908c58	0.070580184
17	0xbda94385	-0.082648315
18	0x3d07544d	0.03303938
19	0xbcf64802	-0.030063633
20	0xbdffaecb	-0.12484511
21	0xbc1471b6	-0.009060314
22	0x3d1c1bdb	0.038112503
23	0x3de17105	0.11007885
24	0xbcbc271c	-0.022967868
25	0xbd567b34	-0.05236359
26	0xbc5202f2	-0.012818085
27	0xbc64cb9d	-0.013964561
28	0xbd591ab9	-0.053004
29	0xbdb3a179	-0.08771033
30	0x3c55042f	0.013001486
31	0x3db0f32c	0.08640131
32	0xbd7fe2e4	-0.06247224
33	0xbdb3c5b0	-0.0877794
34	0x3cb74ab0	0.022374481
35	0x3d9eed73	0.077601336
36	0xbd951638	-0.072796285
37	0x3d4d7c2b	0.050167244
38	0x3db34787	0.08753877
39	0x3d7e4c20	0.062084317
40	0x3d88faac	0.06688437
41	0x3d5387ae	0.051643066
42	0x3d23560b	0.03987698
43	0x3da7818d	0.08179007
44	0xbcf00d3a	-0.029303182
45	0x3ccf1d35	0.025282482
46	0x3daa2fa8	0.08309871
47	0xbd539852	-0.051658936
48	0xbd5a895d	-0.053353656
49	0x3d1d4db2	0.038404174
50	0xbda7210c	-0.081606
51	0x3c7c8a64	0.015413854
52	0x3db583b5	0.08863012
53	0xbdbd993d	-0.092577435
54	0x3ce999c2	0.0285157
55	0xbd83bf51	-0.06432975
56	0xbddf3db5	-0.109004416
57	0x3dd0e299	0.1019947
58	0x3d7d62ca	0.06186179
59	0xbca0184c	-0.019542836
60	0x3d8b1c86	0.0679255
61	0xbcf3d728	-0.02976568
62	0xbc3d4d44	-0.011554066
63	0x3d7ff1ec	0.062486574
64	0xbdb0b69c	-0.0862858
65	0xbc34a2b3	-0.011025119
66	0x3d5a2076	0.053253613
67	0xbdc441c1	-0.09582854
68	0x3d96e383	0.07367613
69	0x3d3ccc22	0.046093114
70	0x3dac22c9	0.08405072
71	0xbd9ce76e	-0.07661329
72	0xbc70fd59	-0.01470884
73	0xbd672a61	-0.0564369
74	0xbd21871d	-0.039435495
75	0x3dc06dbe	0.09395932
76	0xbcc9ae03	-0.024619108
77	0xbcecafb9	-0.028892385
78	0xbd803093	-0.06259265
79	0xbd923494	-0.07138935
80	0x3dbf9bad	0.09355865
81	0x3c86cd6d	0.016455377
82	0x3de7f973	0.113268755
83	0x395b90d6	0.00020939423
84	0x3e15f8dd	0.14645715
85	0xbd9a0e74	-0.07522288
86	0xbd6933fb	-0.056934338
87	0xbc74ebdb	-0.01494881
88	0xbd463151	-0.048386876
89	0x3dae4b3c	0.085104436
90	0xbdaa6d18	-0.08321589
91	0x3de810a3	0.11331298
92	0x3da1479d	0.07874987
93	0x3c220a71	0.009890185
94	0x3de2d006	0.110748336
95	0xbd3171e1	-0.043321494
96	0xbd91d50b	-0.07120713
97	0xbd26005c	-0.040527686
98	0x3da6572e	0.08122097
99	0xbda7fc06	-0.082023665
100	0x3d73ebc5	0.05955102
101	0xbd1da594	-0.038487986
102	0x3b651088	0.003495248
103	0xbd9f6236	-0.07782404
104	0xbd65d6cb	-0.056113046
105	0xbc99a1e5	-0.018753955
106	0x3d803f7f	0.06262111
107	0x3c5a0a05	0.013308053
108	0x3da2f04c	0.07955989
109	0x3d7497c6	0.059715055
110	0xbd35de80	-0.044401646
111	0xbcfe0711	-0.031009229
112	0xbe07cede	-0.13262507
113	0xbd4842e2	-0.04889191
114	0x3e0c2434	0.13685685
115	0xbd0102ef	-0.03149694
116	0x3dd4fb7c	0.10399529
117	0x3c033b5b	0.008009757
118	0xbbed06e8	-0.0072334893
119	0x3d73412f	0.059388336
120	0x3d72d91c	0.059289083
121	0x3dfb1191	0.1225921
122	0x3e00f16f	0.125921
123	0x3b687901	0.0035472515
124	0x3bb591f0	0.0055410787
125	0x3db93ff6	0.09045403
126	0xbd2ac9a3	-0.041696202
127	0x3d7d45d4	0.06183417
128	0xbde0fe0a	-0.10985954
129	0x3d841a32	0.06450309
130	0x3d8623b5	0.06549779
131	0x3db3a3cd	0.08771477
132	0xbd882afb	-0.06648823
133	0x3df1425b	0.117802344
134	0xbdf4632e	-0.119329795
135	0x3d8c6b9f	0.068564646
136	0xbdc5d9e3	-0.09660699
137	0x3d95dcc2	0.07317497
138	0x3c6ade7e	0.014335273
139	0x3ddca64c	0.10773906
140	0x3cfe14c2	0.031015757
141	0x3e09ca72	0.13456133
142	0x3e1257df	0.14291333
143	0xbd717ffe	-0.058959953
144	0x3da9739c	0.08274004
145	0x3cc3d466	0.02390499
146	0xbde782a3	-0.11304214
147	0xbdf923a2	-0.121649995
148	0xbd392d64	-0.045209303
149	0x3de1dd5f	0.11028551
150	0xbc275bda	-0.01021477
151	0xbd16d72c	-0.036826298
152	0xbe093be8	-0.13401759
153	0xbcc27f4e	-0.023742344
154	0xbc89b87b	-0.0168116
155	0x3dc6ab21	0.09700609
156	0xbc97181a	-0.01844411
157	0xbdb69c14	-0.08916488
158	0x3daf292e	0.08552776
159	0xbdb98442	-0.09058429
160	0x3d9127fe	0.07087706
161	0xbd9ad6c4	-0.075604945
162	0xbd98517a	-0.074374154
163	0xbdba7859	-0.09104986
164	0x3dda8ca7	0.106713586
165	0x3dd6ae35	0.10482446
166	0x3dadd857	0.08488529
167	0xbc869cec	-0.016432248
168	0xbdd18dd8	-0.10232133
169	0xbd3336f1	-0.043753568
170	0x3d4ca673	0.049963426
171	0x3d47defe	0.048796646
172	0xbc814059	-0.015777754
173	0xbdef9891	-0.116990216
174	0xbc22ddcc	-0.009940576
175	0x3d880bff	0.06642913
176	0xbd98cb9e	-0.07460712
177	0x3dd2e1e7	0.10296994
178	0xbddcb2d1	-0.10776294
179	0xbd2a48d2	-0.041573353
180	0xbabc6498	-0.0014373241
181	0xbbab53cc	-0.005228495
182	0xbdeb5a64	-0.1149185
183	0x3d1b74f2	0.037953325
184	0xbdf26bae	-0.118369445
185	0x3da8b618	0.082378566
186	0x3e0f5628	0.1399771
187	0xbcc4fdfb	-0.024046889
188	0x3d0b5688	0.03401807
189	0x3e0af947	0.13571654
190	0xbe083de5	-0.13304861
191	0x3dd48a49	0.10377938
192	0xbdb0966c	-0.08622441
193	0xbc72a8ff	-0.0148108
194	0xbdcfb579	-0.10142035
195	0x3b51f073	0.0032034188
196	0x3d74238b	0.05960421
197	0x3dfce2d3	0.12347951
198	0xbe0335ee	-0.12813541
199	0xbdb25926	-0.0870841
200	0x3d94ca98	0.07265204
201	0x3d429e41	0.047514204
202	0x3dc56ae6	0.0963953
203	0x3cac716c	0.021050178
204	0x3dad98d6	0.08476417
205	0xbd8fd992	-0.0702392
206	0xbde2356f	-0.11045348
207	0xbd9cb6bf	-0.076520436
208	0xbd8519c4	-0.06499055
209	0xbd0bc9be	-0.034127943
210	0x3da7d798	0.08195418
211	0x3cbf48a2	0.023350064
212	0x3d6ba7cf	0.05753308
213	0x3c993ac5	0.018704781
214	0x3d174b16	0.036936842
215	0xbde10ab5	-0.1098837
216	0xbe157ef1	-0.14599206
217	0x3d873de2	0.066036
218	0x3d6c11e1	0.05763424
219	0xbdfe7112	-0.1242391
220	0xbc35f2b1	-0.011105225
221	0xbdda6862	-0.10664441
222	0x3d149c47	0.03628185
223	0x3df30228	0.11865646
224	0x3d40b060	0.047043204
225	0xbb0c583d	-0.0021414899
226	0xbab15f30	-0.0013532396
227	0x3d93da1e	0.07219337
228	0x3c3760cf	0.011192515
229	0x3dfc4a1c	0.12318823
230	0xbcffdddc	-0.03123372
231	0x3d35a283	0.044344436
232	0x3dc0389e	0.09385799
233	0x3dcae298	0.099065006
234	0x3d354cfc	0.04426287
235	0xbda493a3	-0.08035972
236	0xbdd3190d	-0.103075124
237	0x3d354353	0.04425366
238	0x3d266a4c	0.040628716
239	0x3dd53217	0.104099445
240	0x3dd95c35	0.1061329
241	0xbdbfa390	-0.09357369
242	0xbda7ff4d	-0.08202992
243	0xbd7b8350	-0.061404526
244	0x3dbb2012	0.09136976
245	0xbb7262da	-0.003698519
246	0x3d09edcc	0.033674046
247	0x3d33fb41	0.043940786
248	0xbe0975d5	-0.13423856
249	0xbd7fe7d4	-0.062476948
250	0x3c1b85ed	0.00949238
251	0xbc0a465f	-0.008439629
252	0x3d322b21	0.043498162
253	0x3de7aa73	0.113118075
254	0x3d372916	0.044716917
255	0x3c83dd19	0.016096639

lstm.bias_ih_l1 f4 [256]
0	0xbc623134	-0.013805676
1	0x3cfd9e74	0.030959345
2	0x3dfc9bed	0.12334428
3	0xbc859447	-0.016306056
4	0x3e06cf0c	0.1316492
5	0x3d6ff3a8	0.058581978
6	0x3dc6d812	0.09709181
7	0x3deceaa7	0.11568194
8	0xbd95600d	-0.07293711
9	0x3b307d3c	0.0026930114
10	0x3d96b595	0.07358853
11	0xbd6a8c91	-0.05726296
12	0x3de36b41	0.111044414
13	0x3cb3482b	0.021884998
14	0x3d814f85	0.06313995
15	0xbdfcc256	-0.12341754
16	0x3da39a6d	0.07988439
17	0x3e026d6d	0.12737055
18	0xbd4b34dc	-0.049610958
19	0x3d770bd7	0.060314026
20	0xbc4c127a	-0.012455577
21	0x3e0883f4	0.13331586
22	0xbcaea774	-0.021320082
23	0xbe04df53	-0.12975816
24	0xbd1a5e1e	-0.037687413
25	0x3bfd7234	0.0077345613
26	0xbd0afa84	-0.033930317
27	0xbca8bde9	-0.020598369
28	0xbd75d137	-0.060013976
29	0x3cdf431f	0.027253686
30	0x3e13ff29	0.14452805
31	0xbdac6669	-0.08417971
32	0x3db70773	0.08936968
33	0x3d52e352	0.05148632
34	0x3db6f67d	0.08933733
35	0x3c9200a6	0.017822575
36	0x3da7bca1	0.08190275
37	0x3da0a7f3	0.07844534
38	0xbd41bf6d	-0.0473017
39	0x3db3d8b2	0.08781566
40	0x3dde9eed	0.108701564
41	0x3e13e697	0.14443432
42	0xbc9335e8	-0.01797004
43	0xbdc165d5	-0.09443251
44	0x3de35077	0.11099332
45	0x3e172a29	0.14762177
46	0x3dffe970	0.124956965
47	0x3d8451e8	0.06460935
48	0xbdbaa27d	-0.091130234
49	0xbce231e5	-0.027611682
50	0x3d714608	0.058904678
51	0x3daae867	0.083451085
52	0x3c1dd68d	0.009633672
53	0xbda2144c	-0.079140276
54	0xbd4355e5	-0.047689337
55	0x3dd09b72	0.10185899
56	0x3afc0c6f	0.001922978
57	0x3df126fa	0.11775012
58	0x3d9672b7	0.07346099
59	0xbdf0f7d3	-0.11766019
60	0x3c94c177	0.018158657
61	0x3dc87ab5	0.097890295
62	0xbdbc0e1d	-0.091823794
63	0xbe118179	-0.14209546
64	0x3d6d0d8f	0.05787426
65	0xbd1adfc1	-0.037811045
66	0xbc560183	-0.013061884
67	0xbd413860	-0.047172904
68	0x3d0354ad	0.032063175
69	0x3e01dc96	0.12681803
70	0xbdb85e5c	-0.090023726
71	0x3df63e69	0.120236225
72	0x3d836fd4	0.06417814
73	0x3cd6347d	0.026148075
74	0x3df3c944	0.11903623
75	0x3e120991	0.14261462
76	0xbcb85d1c	-0.022505336
77	0x3da2fd58	0.07958478
78	0x3d490297	0.049074735
79	0xbb628429	-0.0034563637
80	0x3d4919b2	0.04909677
81	0x3d59f2ac	0.053209946
82	0x3b50d627	0.0031865926
83	0xbe0c6095	-0.13708718
84	0xbd1a37b6	-0.037650786
85	0xbc932e42	-0.017966393
86	0xbd4081df	-0.046998855
87	0x3d4ec794	0.0504833
88	0x3dd77feb	0.10522445
89	0x3d5f7c22	0.05456174
90	0xbd538ce4	-0.051648036
91	0xbb002943	-0.0019555844
92	0xbc02b1b9	-0.007976943
93	0x3e161561	0.14656593
94	0xbda625ce	-0.081126794
95	0xbd80a818	-0.06282061
96	0x3d418b3a	0.047251917
97	0x3d191631	0.03737468
98	0x3d0c09e8	0.034189135
99	0x3d849d0a	0.06475265
100	0x3d9ecc20	0.077537775
101	0x3d7d70d1	0.06187517
102	0xbd83306b	-0.06405719
103	0xbdf2f7d9	-0.118636794
104	0x3dc74a00	0.09730911
105	0x3cfe8f3a	0.031074155
106	0x3db2cf9c	0.087310046
107	0x3e063943	0.13107781
108	0xbd15e905	-0.036599178
109	0x3d4b9f09	0.049712215
110	0xbde3e590	-0.1112777
111	0x3d150258	0.03637919
112	0xbc9648c5	-0.018345246
113	0x3d81066d	0.06300054
114	0xbd3a2033	-0.045440864
115	0xbcb174e9	-0.021662192
116	0x3d8c8d52	0.06862892
117	0xbda7e88f	-0.08198654
118	0xbda81d1a	-0.08208676
119	0x3d10afd3	0.03532393
120	0xbd707048	-0.05870083
121	0x3cbc3aac	0.022977196
122	0xbdda51f1	-0.1066016
123	0xbccafbef	-0.024778334
124	0xbd6b6577	-0.05746981
125	0xbd3172e8	-0.043322474
126	0x3d67c24d	0.056581784
127	0xbdf05ce2	-0.11736466
128	0x3e085149	0.13312258
129	0xbd9e5ba7	-0.07732325
130	0xbd373415	-0.044727404
131	0x3d65c31d	0.056094278
132	0xbb7c4074	-0.0038490565
133	0xbc366424	-0.011132274
134	0xbde7353a	-0.11289449
135	0x3dcdc10d	0.10046587
136	0x3e1a7c56	0.15086493
137	0x3c16828a	0.009186396
138	0xbdb79740	-0.089643955
139	0xbdd6baa1	-0.104848154
140	0xbdaa833f	-0.083258145
141	0x3de6379c	0.112410754
142	0xbd2d8f8b	-0.04237322
143	0xbc099428	-0.00839714
144	0xbde9c804	-0.11415103
145	0x3d8e1b2f	0.069387786
146	0x3db20664	0.08692625
147	0x3c6f2742	0.014596762
148	0xbd32ca7a	-0.043650128
149	0xbce1f4bb	-0.027582517
150	0xbda82213	-0.08209624
151	0x3d819aef	0.06328379
152	0xbe04d47a	-0.12971678
153	0xbd6f1df7	-0.058378186
154	0xbd453808	-0.04814914
155	0xbdaf6c11	-0.08565534
156	0x3da91d8c	0.08257589
157	0x3a1bd2f8	0.00059442176
158	0xbc0c92bc	-0.008579906
159	0xbd556933	-0.05210228
160	0x3d72ce5d	0.059278835
161	0xbd454c75	-0.04816862
162	0xbd3b85f7	-0.045782056
163	0x3d9607cf	0.07325708
164	0xbe1bdc09	-0.15220656
165	0x3dd32ae8	0.10310918
166	0xbdb4bcb9	-0.088250585
167	0xbdb8efab	-0.09030088
168	0xbcc82539	-0.024431812
169	0x3ceb909b	0.028755477
170	0xbd2b0e05	-0.041761417
171	0x3c832766	0.016009998
172	0xbe0d8e15	-0.13823731
173	0xbd9f0e85	-0.07766441
174	0xbc816322	-0.01579434
175	0xbd3f7f6e	-0.046752386
176	0x3dcf0629	0.10108597
177	0xbce83668	-0.028346255
178	0xbe17e8ad	-0.14834853
179	0xbd5cc00d	-0.05389409
180	0xbd0c6b74	-0.034282163
181	0x3dacbbdb	0.08434268
182	0x3df0440e	0.117317304
183	0x3e0973e0	0.13423109
184	0xbdaa940f	-0.08329021
185	0x3d93bf32	0.07214202
186	0xbd9ca565	-0.07648734
187	0x3c933e1d	0.017973954
188	0x3deb2173	0.11480989
189	0x3d27ce3e	0.040968172
190	0xbd637c47	-0.055538442
191	0x3d84ae13	0.064785145
192	0xbc68a97e	-0.014200566
193	0xbe0ea12d	-0.13928671
194	0x3c3ec018	0.011642478
195	0xbc57837d	-0.013153908
196	0xbd3b0317	-0.045657244
197	0xbd12d8b9	-0.035851214
198	0xbd0c5f2d	-0.034270454
199	0xbdb88fc6	-0.090117976
200	0xbdb0d2d5	-0.08633963
201	0x3de926e6	0.113843724
202	0xbda5e0ec	-0.08099541
203	0x3e0deaeb	0.13859145
204	0x3de85832	0.11344947
205	0xbd9019b8	-0.070361555
206	0xbbefa5f6	-0.0073134853
207	0xbd28e934	-0.041238025
208	0xbc3e631f	-0.011620312
209	0xbd5bf2dc	-0.053698406
210	0xbc9c04ee	-0.01904532
211	0xbddff8f4	-0.10936156
212	0x3defa032	0.11700477
213	0x3cc09076	0.023506384
214	0x3d9bd43a	0.076088384
215	0x3d3902bb	0.04516862
216	0x3dad98f5	0.0847644
217	0x3c9829f5	0.018574694
218	0x3d3e9a6d	0.04653399
219	0xbda0c6f7	-0.078504495
220	0x3d8cc928	0.06874305
221	0xbd3d7684	-0.046255603
222	0xbc8a1f80	-0.016860723
223	0x3c86165d	0.016368086
224	0x3e177dd2	0.1479409
225	0x3c8c47d5	0.017124096
226	0xbdb46891	-0.08809007
227	0xbd9daf0f	-0.076994054
228	0x3db307ef	0.087417476
229	0x3d051f19	0.03250036
230	0x3ce7d9c2	0.028302077
231	0x3a942e9f	0.0011305398
232	0x3d15eaa7	0.036600735
233	0x3c7cf4be	0.01543921
234	0x3dda67ef	0.10664355
235	0x3beddf09	0.007259254
236	0x3c90e70a	0.017688293
237	0xbdc04792	-0.09388651
238	0xbcaba9a5	-0.020954916
239	0xbda2033c	-0.07910773
240	0x3d3ec845	0.04657771
241	0xbb7b5a1a	-0.0038353265
242	0x3d316d86	0.04331734
243	0x3d710891	0.05884606
244	0xbd5faf87	-0.054610755
245	0xbdb87daa	-0.090083435
246	0x3dc729c3	0.09724762
247	0x3e134777	0.1438273
248	0x3d1e6d65	0.038678546
249	0x3d8ece3e	0.06972931
250	0xbd089408	-0.0333443
251	0xbd7b7cfa	-0.061398484
252	0x3cb58cfc	0.022161953
253	0xbcfcaeb3	-0.030845022
254	0x3d83d119	0.064363666
255	0xbce8dd85	-0.028425941
